mano_data/mano_mean_params.npz (npz, 1178 bytes, 3 tensors)

pose f4 [96]
000000 00 00 80 3f 00 00 00 00 00 00 00 00 04 00 80 bf
       1.0 0.0 0.0 -1.0000005
000010 00 00 00 00 6a 21 22 34 40 ea 69 3f e3 66 cd 3e
       0.0 1.5099582e-07 0.9137306 0.4011756
000020 f7 00 84 3d fb d0 cf be 44 93 68 3f 3e 9f cb 3d
       0.064454965 -0.40589127 0.9084971 0.099424824
000030 af c9 39 3f 14 0b 30 3f 3f 44 a8 bc 25 4b 2e bf
       0.7257337 0.68766904 -0.020540355 -0.6808341
000040 2d e0 38 3f 8d 47 fa 3d ab 6b 7a 3f 07 d0 3a 3e
       0.72217065 0.122206785 0.9782054 0.18243419
000050 97 12 cb bd 38 bf 43 be 33 4a 7a 3f 1a 34 b2 bd
       -0.09915655 -0.19115913 0.9776947 -0.08701344
000060 27 a8 5c 3f 7e b6 01 3f 54 16 93 3c e0 35 00 bf
       0.8619408 0.50669086 0.017954983 -0.50082207
000070 50 3d 5b 3f 9f 81 00 be 63 be 42 3f 16 2a 26 3f
       0.8564043 -0.12549447 0.7607176 0.6490797
000080 41 d7 08 3b 08 38 24 bf 55 96 40 3f ba cb 19 be
       0.0020880254 -0.64147997 0.7522939 -0.15019122
000090 0f 74 70 3f 20 09 a9 3e 07 d2 bf bd ec ee a9 be
       0.9392709 0.33014774 -0.093662314 -0.33190095
0000a0 a7 7c 71 3f df 8f 5b bb 60 dc 4b 3f 0c ba 04 3f
       0.9433083 -0.0033502502 0.7963314 0.51846385
0000b0 fc 80 9f be e1 7e 1a bf 19 31 37 3f 61 16 b4 be
       -0.31153095 -0.6034985 0.7155929 -0.35173324
0000c0 e2 66 5f 3f 0d e7 f2 3e 3a f0 ec bd d4 f8 f9 be
       0.8726636 0.47441903 -0.11569257 -0.48822653
0000d0 78 32 5a 3f 72 05 40 be 98 bd 7e 3f 04 47 88 3d
       0.8523326 -0.18752077 0.9950805 0.0665417
0000e0 e0 50 96 bd 15 6a b5 bd af ea 6d 3f 1f 7e b7 be
       -0.073396444 -0.08858124 0.92936224 -0.3583841
0000f0 2a 39 4d 3f 5b be 15 3f 3d 82 fc bd 4a c0 18 bf
       0.8016535 0.58493584 -0.123295285 -0.5966841
000100 fa a5 4b 3f ac 36 d8 bd a1 a0 4e 3f e3 7e 12 3f
       0.79550135 -0.10557303 0.8071385 0.57224864
000110 83 99 14 be f3 ce 16 bf e2 bc 43 3f cb db 85 be
       -0.14511685 -0.5890953 0.7646009 -0.2614425
000120 8d 3c 6c 3f 86 5d b3 3e fc 35 24 be 64 17 bf be
       0.92279893 0.3503229 -0.16036218 -0.37322533
000130 ce 86 6a 3f 68 e5 15 be 7d d3 75 3f f8 09 f9 bc
       0.91611946 -0.14638293 0.9602583 -0.030400261
000140 3a 0e 8e 3e 65 56 42 be 58 64 28 3f b3 99 3a 3f
       0.2774523 -0.1897827 0.6577811 0.72890776
000150 a9 8f 7f 3f 20 f4 34 bd 5b 3d 1d 3d 84 2f 6a 3d
       0.99828583 -0.04417813 0.03838859 0.05717422
000160 ee 56 60 3f 68 e5 f4 be 07 30 76 3f 7b c9 7e 3e
       0.87632644 -0.47831273 0.96167034 0.24881546
000170 96 04 ec 3d e2 9d 8b be 9c d7 52 3f c1 9f fe 3e
       0.11524312 -0.27268893 0.82360244 0.49731258

shape f4 [10]
000000 5c 8b 52 3e e9 ce ab 3e b3 8c b3 be 89 56 b6 3e
       0.20560974 0.33556297 -0.35068282 0.35612896
000010 e6 c7 d5 3e a4 08 fd 3c 14 09 9c 3e 20 cd 71 3e
       0.41754073 0.03088791 0.30475676 0.23613405
000020 4a 25 56 3e 0a cf 9f 3e
       0.20912662 0.31212646

cam f4 [3]
000000 00 00 80 40 00 00 00 00 00 00 00 00
       4.0 0.0 0.0
